…
2023-04-12 15:08:16,641 INFO    MainThread:13584 [wandb_init.py:_log_setup():508] Logging internal logs to C:\Users\Administrator\OneDrive\Documents\Deep learning\Super Resolution\Models\2017-WassersteinGAN-GP-SimpleVersion\wandb\run-20230412_150816-yub94rgj\logs\debug-internal.log
2023-04-12 15:08:16,641 INFO    MainThread:13584 [wandb_init.py:init():547] calling init triggers
2023-04-12 15:08:16,641 INFO    MainThread:13584 [wandb_init.py:init():554] wandb.init called with sweep_config: {}
config: {'architecture': 'WGAN', 'dataset': 'another anime face dataset', 'samples_num': 50000, 'learning_rate': 0.0001, 'Generator': 'Generator(\n  (layers): Sequential(\n    (0): ConvTranspose2d(100, 768, kernel_size=(4, 4), stride=(1, 1), bias=False)\n    (1): BatchNorm2d(768, eps=1e-05, momentum=0.1, affine=True, track_running_stats=True)\n    (2): ReLU(inplace=True)\n    (3): ConvTranspose2d(768, 192, kernel_size=(4, 4), stride=(2, 2), padding=(1, 1), bias=False)\n    (4): BatchNorm2d(192, eps=1e-05, momentum=0.1, affine=True, track_running_stats=True)\n    (5): ReLU(inplace=True)\n    (6): ConvTranspose2d(192, 48, kernel_size=(4, 4), stride=(2, 2), padding=(1, 1), bias=False)\n    (7): BatchNorm2d(48, eps=1e-05, momentum=0.1, affine=True, track_running_stats=True)\n    (8): ReLU(inplace=True)\n    (9): ConvTranspose2d(48, 12, kernel_size=(4, 4), stride=(2, 2), padding=(1, 1), bias=False)\n    (10): BatchNorm2d(12, eps=1e-05, momentum=0.1, affine=True, track_running_stats=True)\n    (11): ReLU(inplace=True)\n    (12): PixelShuffle(upscale_factor=2)\n    (13): Tanh()\n  )\n)', 'Discriminator': 'Discriminator(\n  (layers): Sequential(\n    (0): Conv2d(3, 64, kernel_size=(4, 4), stride=(2, 2), padding=(1, 1), bias=False)\n    (1): LeakyReLU(negative_slope=0.2, inplace=True)\n    (2): Conv2d(64, 128, kernel_size=(4, 4), stride=(2, 2), padding=(1, 1), bias=False)\n    (3): LeakyReLU(negative_slope=0.2, inplace=True)\n    (4): Conv2d(128, 256, kernel_size=(4, 4), stride=(2, 2), padding=(1, 1), bias=False)\n    (5): LeakyReLU(negative_slope=0.2, inplace=True)\n    (6): Conv2d(256, 512, kernel_size=(4, 4), stride=(2, 2), padding=(1, 1), bias=False)\n    (7): LeakyReLU(negative_slope=0.2, inplace=True)\n    (8): Conv2d(512, 1, kernel_size=(4, 4), stride=(1, 1), bias=False)\n  )\n)', 'epochs': 15, 'batch_size': 64, 'optimizer_G': <class 'torch.optim.adam.Adam'>, 'betas_G': (0.5, 0.999), 'optimizer_D': <class 'torch.optim.adam.Adam'>, 'betas_D': (0.5, 0.999)}
2023-04-12 15:08:16,641 INFO    MainThread:13584 [wandb_init.py:init():595] starting backend
2023-04-12 15:08:16,641 INFO    MainThread:13584 [wandb_init.py:init():599] setting up manager
…
